TP8_PytorchLighting/lightning_logs/version_0/checkpoints/epoch=0-step=100.ckpt (torch, 411468 bytes, 4 tensors)

model.0.weight f4 [128, 784]
-0.008879423 -0.0015633218 -0.017060954 0.0021853074 -0.028613117 0.0009102598 0.00890132 0.033281747
0.022175428 -0.010485768 -0.023656242 -0.014072478 -0.033276267 0.011928283 0.012432627 -0.00035122782
-0.016538633 0.01515463 -0.0232378 -0.035142917 0.010477144 -0.03070702 0.019068226 0.025216427
0.026556704 0.0011432543 -0.028773913 -0.021994352 0.020857867 -0.013437042 -0.0070872866 -0.020972505
0.026480436 0.027023222 0.027760651 0.00065005943 -0.021611368 -0.007136766 0.0031668134 0.01538416
-0.0128198955 0.0032286122 -0.013809515 -0.014081465 -0.0213083 -0.026722513 -0.028105307 0.017179161
-0.0069920644 0.015690252 -0.026424699 0.024789918 0.003751088 0.007045947 0.033786867 0.015026525
-0.00471339 0.029009912 0.015237745 -0.015807059 0.0037647448 0.019712139 -0.027207848 0.0036874749
-0.03009294 -0.025853384 -0.024586206 -0.032662675 -0.022882268 0.013184406 -0.0070576034 0.028268378
-0.00864769 0.018949471 -0.0028798692 -0.022068497 -0.015380681 -0.005785534 -0.033233304 -0.033022895
0.009829201 -0.016808629 -0.0133064315 -0.009015458 0.018025827 0.029675972 0.007985279 -0.03357329
-0.01537003 0.012566261 0.032831434 0.007315386 0.031123597 -0.029648025 -0.012861662 0.018089697
0.015687644 -0.011345055 0.025563072 0.015979782 -0.0016406775 0.031437043 0.0066878684 0.004755728
0.03419998 -0.01755712 0.016523201 -0.02211617 0.024031479 -0.0031434074 0.0054393075 -0.014278885
-0.016082462 -0.00725569 0.007873967 -0.024903357 -0.01458874 -0.02840546 0.009992305 0.032169405
-0.0036650784 -0.026977072 -0.02432217 0.00026046857 0.03543966 -0.0019737743 -0.024118442 -0.026709482
0.009462163 0.011601657 0.010537639 0.023458295 -0.001975596 -0.011802083 -0.015165662 0.03170618
-0.011355214 -0.031203523 0.02871887 -0.010904722 -0.010382652 0.017173726 -0.01702634 0.024297308
0.018417198 -0.030556416 -0.034500327 0.02322058 -0.035656907 -0.00071367994 0.028925601 0.024383567
0.013540272 0.025280539 -0.020275593 0.009494908 0.013703413 -0.032184828 0.028264936 0.009882696
0.0025111735 -0.005322516 -0.014215559 -0.0005286746 0.028418105 0.01465169 0.005914364 -0.015825294
-0.013214555 -0.021670142 -0.015453752 -0.025783978 -0.007823868 -0.004378479 -0.031296983 -0.013692319
0.002577994 0.024887249 -0.0005680099 0.0067249984 -0.0009642653 -0.0062239207 0.027107086 0.016446501
0.013283808 -0.0046625473 0.015916295 -0.00013541058 -0.026733344 0.032595407 0.031697225 -0.02735287
0.0014322028 0.023217112 0.026874963 -0.00913018 -0.01386141 -0.031476483 -0.016389664 -0.020524915
-0.0228127 0.028820623 -0.015208155 0.021977067 -0.020685874 -0.0021382496 0.02341637 -0.026401132
0.020669043 0.020576473 0.007958878 -0.015064921 0.0064581037 -0.03525808 -0.005127553 -0.013380839
0.034983914 0.014210869 0.019277219 0.0019835196 0.02395982 0.016920641 0.034843203 -0.034630552
0.025744732 0.020235557 0.013544578 -0.01685883 0.019767758 0.01782995 -0.0029182658 -0.02389107
-0.008337123 -0.034897223 0.015371755 -0.023168072 0.021626264 -0.007997781 -0.00056334585 -0.026835818
-0.003990274 -0.009484446 0.011209622 0.0060412176 0.01898044 -0.02874672 -0.009368382 0.018591657
0.020914022 -0.0111222435 -0.0008910261 -0.0158696 0.031838555 -0.0051257834 0.027303126 -0.010259595
00000000: 007b 11bc 60e8 ccba 6ac3 8bbc 6037 0f3b
00000010: 0e66 eabc 809e 6e3a d8d6 113c 7152 083d
00000020: 3ea9 b53c 80cc 2bbc bcca c1bc 4090 66bc
00000030: b24c 08bd d86e 433c 38b2 4b3c 0025 b8b9
00000040: 077c 87bc 204b 783c 335d bebc 05f2 0fbd
00000050: 54a8 2b3c 4a8d fbbc f834 9c3c ae92 ce3c
00000060: 728d d93c 40d9 953a 45b7 ebbc 802d b4bc
00000070: 1ede aa3c 0a27 5cbc 783c e8bb 88ce abbc
00000080: 80ed d83c ce5f dd3c 4e6a e33c c068 2a3a
00000090: 530a b1bc 88db e9bb 508a 4f3b d80d 7c3c
000000a0: 8a0a 52bc 2097 533b 4e41 62bc f2b5 66bc
000000b0: be8e aebc 2ce9 dabc 1a3d e6bc 50bb 8c3c
000000c0: b01d e5bb d888 803c 9c78 d8bc 3a14 cb3c
000000d0: d0d4 753b b0e1 e63b 1964 0a3d d031 763c
000000e0: c872 9abb 32a6 ed3c bca7 793c ce7d 81bc
000000f0: f0b9 763b 5a7b a13c fee2 debc 90a9 713b
00000100: 7885 f6bc 7aca d3bc 0369 c9bc 4cc9 05bd
00000110: 9873 bbbc 6803 583c 7843 e7bb 1693 e73c
00000120: 0aaf 0dbc ec3b 9b3c 30bc 3cbb fec8 b4bc
00000130: 40ff 7bbc 9494 bdbb a51f 08bd 0443 07bd
00000140: a80a 213c 40b2 89bc 3803 5abc 92b5 13bc
00000150: e6aa 933c 061b f33c b0d4 023c 2584 09bd
00000160: 94d2 7bbc b8e2 4d3c 417a 063d e8b5 ef3b
00000170: eaf6 fe3c 6ae0 f2bc b8b9 52bc d830 943c
00000180: 6083 803c 9ce0 39bc a669 d13c 08e8 823c
00000190: 000c d7ba 21c4 003d e825 db3b f0d5 9b3b
000001a0: 4715 0c3d f3d3 8fbc aa5b 873c f82c b5bc
000001b0: aadd c43c a001 4ebb 383c b23b fcf1 69bc
000001c0: 5ebf 83bc 24c1 edbb d001 013c 2002 ccbc
000001d0: 9c05 6fbc 91b2 e8bc c4b6 233c 11c4 033d
000001e0: d031 70bb 05ff dcbc 4a3f c7bc 808f 8839
000001f0: 2d29 113d 705a 01bb 0a94 c5bc d8cd dabc
00000200: 3007 1b3c e014 3e3c 10a6 2c3c 9c2b c03c
00000210: 0079 01bb 865d 41bc 6679 78bc 57de 013d
00000220: 380b 3abc 889e ffbc d643 eb3c b8a9 32bc
00000230: 001c 2abc eaaf 8c3c d37a 8bbc 260b c73c
00000240: aadf 963c 7351 fabc 3750 0dbd 1639 be3c
00000250: fa0c 12bd 4016 3bba 62f5 ec3c 0cc0 c73c
00000260: 04d8 5d3c 2219 cf3c 0019 a6bc 8890 1b3c
00000270: 4884 603c 3dd4 03bd de8b e73c 08eb 213c
00000280: 8092 243b 8068 aebb 60e8 68bc c096 0aba
00000290: 16cd e83c a40d 703c 48cd c13b 0ca4 81bc
000002a0: dc81 58bc 9585 b1bc bc31 7dbc ec38 d3bc
000002b0: ae2f 00bc 5879 8fbb 4431 00bd c055 60bc
000002c0: 90f3 283b 58e0 cb3c 80e6 14ba 605d dc3b
000002d0: c0c6 7cba 08f2 cbbb ae0f de3c d0ba 863c
000002e0: 54a4 593c 48c8 98bb e462 823c 00fd 0db9
000002f0: e3ff dabc c382 053d f3d4 013d 2013 e0bc
00000300: c0b8 bb3a d031 be3c e228 dc3c c096 15bc
00000310: f81a 63bc 7ced 00bd 9e43 86bc de23 a8bc
00000320: b3e1 babc 3a19 ec3c a02b 79bc 4009 b43c
00000330: 6c75 a9bc e021 0cbb b0d3 bf3c 3047 d8bc
00000340: 2052 a93c fe8f a83c f465 023c dcd2 76bc
00000350: 809e d33b c76a 10bd 0805 a8bb 4e3b 5bbc
00000360: 4b4b 0f3d b4d4 683c 42eb 9d3c f0fd 013b
00000370: 6247 c43c 289d 8a3c bfb7 0e3d c4d8 0dbd
00000380: 9ee6 d23c 0ac5 a53c 14ea 5d3c 871b 8abc
00000390: feef a13c 1e10 923c 6040 3fbb 35b7 c3bc
000003a0: 6e98 08bc 64f0 0ebd d0d9 7b3c f8ca bdbc
000003b0: 9029 b13c 2009 03bc 80ad 13ba cad6 dbbc
000003c0: d8c0 82bb a664 1bbc 90a8 373c 68f5 c53b
000003d0: de7c 9b3c 3e7e ebbc d87d 19bc 884d 983c
000003e0: e253 ab3c 123a 36bc c093 69ba f700 82bc
000003f0: 2569 023d 30f6 a7bb ceaa df3c dc17 28bc

model.0.bias f4 [128]
-0.012986358 0.031808738 -0.017870247 -0.025049802 -0.014236085 0.004128583 0.018325139 -0.0053142477
-0.011082135 0.021216147 -0.016620934 -0.004350461 -0.0049470924 -0.024282027 0.01856267 0.009146798
-0.021021103 0.020275623 0.013613366 0.01082826 -0.014327506 -0.01842661 0.031664435 0.019505892
-0.029462794 0.03214738 -0.016116241 0.026714467 -0.0071104895 0.034661796 -0.000589069 0.022944223
-0.008459849 0.028973605 -0.014032092 -0.021587756 0.0072527193 -0.003936406 -0.00018432364 0.005729191
-0.034958947 -0.017078537 0.03503431 -0.025743494 -0.005801294 -0.014199028 -0.006991718 0.032842893
-0.026349971 0.013814822 -0.0075234566 -0.030168768 0.021702718 -0.02848501 -0.02573808 -0.03316573
-0.02146994 -0.0059301388 -0.021816948 -0.03154256 -0.03137213 0.035477404 -0.00039722398 -0.030807769
0.023808263 0.008521609 -0.024582008 -0.014587441 0.0031289384 0.032334667 -0.010622783 0.0034495331
-0.001413852 -0.021062482 -0.034421455 0.003530208 -0.008587059 -0.019003648 -0.025671283 0.008570716
0.0043987855 -0.0030705296 -0.0037756674 -0.0041656494 0.023033138 0.0032626018 0.031646404 0.028606568
0.004082881 0.019377202 -0.026493121 -0.019687807 0.0026824959 0.0023477413 0.026736174 0.018671598
0.013840172 -0.0045694876 -0.02563262 -0.013220919 -0.0318423 0.0073875636 0.019620877 0.02491685
-0.01542986 0.03071751 0.018706195 0.023072593 -0.025052676 0.016428147 -0.0019276626 -0.02516019
0.0313179 0.015160471 -0.035169594 0.033785213 0.008215003 -0.017758971 0.016717333 0.031964365
0.027675238 -0.0041874535 -0.033289075 -0.0050053988 0.019194786 0.019874215 -0.019663373 -0.015149087
00000000: bcc4 54bc e149 023d a064 92bc 3e35 cdbc
00000010: 783e 69bc 1049 873b 9a1e 963c 2423 aebb
00000020: d891 35bc 7ccd ad3c a028 88bc 508e 8ebb
00000030: 381b a2bb 1aeb c6bc be10 983c 74dc 153c
00000040: 7334 acbc 1019 a63c 980a 5f3c 0469 313c
00000050: eabd 6abc 67f3 96bc 91b2 013d d2ca 9f3c
00000060: f55b f1bc f9ac 033d 3506 84bc 4cd8 da3c
00000070: 1cff e8bb 87f9 0d3d c06b 1aba 86f5 bb3c
00000080: 2e9b 0abc 0e5a ed3c dce6 65bc ced8 b0bc
00000090: 38a8 ed3b f8fc 80bb 0047 41b9 f0bb bb3b
000000a0: 1d31 0fbd 4ae8 8bbc 2380 0f3d 05e4 d2bc
000000b0: c818 bebb 0aa3 68bc c81a e5bb 4586 063d
000000c0: e5db d7bc 9057 623c 5487 f6bb 7e24 f7bc
000000d0: e6c9 b13c 6559 e9bc aad8 d2bc cad8 07bd
000000e0: bae1 afbc 9c51 c2bb 75b9 b2bc c532 01bd
000000f0: 1080 00bd c150 113d 8042 d0b9 9360 fcbc
00000100: 8c09 c33c 389e 0b3c 3560 c9bc 2a00 6fbc
00000110: e00e 4d3b 5b71 043d 2e0b 2ebc 9011 623b
00000120: 0051 b9ba 3a8b acbc 83fd 0cbd 105b 673b
00000130: bcb0 0cbc 8aad 9bbc 954c d2bc 306c 0c3c
00000140: b023 903b f03a 49bb 3071 77bb 0080 88bb
00000150: feaf bc3c 60d1 553b a99f 013d 5258 ea3c
00000160: b0c9 853b f0bc 9e3c 1a08 d9bc 5348 a1bc
00000170: d0cc 2f3b 90dc 193b d205 db3c 2ef5 983c
00000180: e4c1 623c a4bb 95bb 80fb d1bc 8e9c 58bc
00000190: 126d 02bd 6013 f23b f6bb a03c 6c1e cc3c
000001a0: 86cd 7cbc 4aa3 fb3c bc3d 993c bc02 bd3c
000001b0: 453b cdbc 5294 863c a0a9 fcba be1c cebc
000001c0: 3347 003d a063 783c fe0d 10bd 5d62 0a3d
000001d0: 3898 063c 437b 91bc caf2 883c 11ed 023d
000001e0: 2eb7 e23c e836 89bb 205a 08bd 5404 a4bb
000001f0: 623e 9d3c 40cf a23c 1515 a1bc e033 78bc

model.2.weight f4 [10, 128]
0.075340085 -0.013978347 0.029084362 0.00029741228 -0.04114195 0.042548724 0.08014252 0.03768266
0.0815183 0.079982124 -0.067879304 0.050991915 0.0072463006 -0.0001859814 0.030198224 0.059888072
-0.0065681636 -0.06093824 0.046582438 -0.059808694 0.03636352 -0.04198416 -0.06625661 -0.034391258
0.031450287 0.023455024 -0.048951205 -0.072634414 0.068847515 0.06882132 -0.027514674 0.02727867
-0.008686125 0.056107543 -0.06601064 -0.012495585 0.061216958 -0.00967975 0.07459944 -0.014860928
-0.0809648 -0.06802814 -0.022427991 -0.026244335 -0.055227816 -0.02732791 0.07170544 -0.00952255
-0.002200961 -0.010080911 0.010988928 -0.07000973 0.033056088 -0.030631728 0.026991136 0.06814646
-0.067203276 0.001483947 0.009700552 0.027075589 0.05575537 0.06038294 0.07425762 0.060723864
-0.009848446 0.01611317 0.022188038 -0.01946786 -0.03921915 0.055002578 -0.06853673 0.038827427
-0.0026352927 0.05556696 -0.081867605 -0.083433576 -0.0056538656 -0.046308238 0.026312865 -0.016058125
-0.070716076 -0.06763722 -0.0420283 -0.08149666 -0.061615422 -0.036449216 -0.0693903 -0.021034732
-0.015692927 -0.004859887 -0.06572781 -0.066629164 0.038582586 0.050725766 -0.085937485 -0.05396963
0.038425006 0.085457616 -0.01052691 -0.031298723 0.010936022 -0.087659806 -0.062493883 -0.050453592
-0.01632081 -0.0033303797 -0.013535716 -0.0648429 0.020889528 -0.010375217 -0.077815406 -0.07451252
-0.048326325 -0.021494716 0.00042860955 0.07183317 -0.0597646 0.035332985 0.042991467 -0.04455121
0.005074121 0.06468751 0.06814688 -0.005990796 0.031128168 -0.036721114 0.0077880025 0.08834771
0.025360063 0.017178394 -0.059221894 0.043935798 0.024318278 0.03481947 0.029421784 0.08488531
0.080333404 -0.012011185 0.027024053 -0.04090363 0.03936901 0.07805323 -0.010210477 0.018816873
0.0068282187 -0.07987186 -0.083720475 0.06300769 0.07741598 -0.04705179 0.05258373 -0.06125546
-0.066457644 0.02812472 -0.011530437 0.0494887 -0.02707722 -0.059867807 -0.016883746 -0.036815926
0.08685697 -0.006938234 -0.027754892 0.05497829 0.027305506 -0.04697914 -0.057389993 0.012231447
0.0041991845 -0.0009271279 -0.009807318 -0.06480309 -0.008962348 0.0843476 0.08745027 -0.032487947
0.06047123 -0.009100199 -0.051214248 0.00111451 -0.08169579 -0.061390236 -0.055747118 0.057154797
0.049281843 -0.015717596 -0.060149223 -0.08071249 -0.03477506 0.046373762 0.06460481 0.061277457
0.016508497 -0.044080462 -0.02577424 -0.03665366 0.0827067 -0.014157832 0.0048363954 -0.051580343
0.018885635 -0.03412646 -0.007139325 0.0030994788 -0.07916671 0.07429657 0.035123378 0.025651991
-0.06080961 -0.0594462 -0.07788154 -0.047098406 0.0011965632 -0.031410433 -0.0048897713 -0.05073251
0.0352256 -0.06293666 -0.08200281 0.02982945 -0.08067975 -0.074104495 0.017910473 -0.027674083
-0.014375731 -0.06568224 0.08360655 0.025061436 0.072982065 -0.04387078 0.06543758 -0.014329836
-0.018726625 0.043436833 0.011967503 0.06904914 0.0269721 -0.0089895725 0.012448922 0.02051241
-0.0668976 -0.009123951 -0.033038512 -0.08286377 -0.03922935 0.029018871 0.040406384 0.008488618
-0.014870264 0.0080069825 0.0074812025 0.024722815 0.0062854514 0.059245147 0.038102694 -0.08260319
00000000: e74b 9a3d 7005 65bc 5442 ee3c 00ee 9b39
00000010: 7684 28bd 9247 2e3d c321 a43d 2259 1a3d
00000020: 11f3 a63d abcd a33d 4e04 8bbd e6dc 503d
00000030: 6072 ed3b 0004 43b9 4462 f73c 324d 753d
00000040: c039 d7bb 609a 79bd 3acd 3e3d f6f9 74bd
00000050: eaf1 143d 95f7 2bbd 8cb1 87bd d9dd 0cbd
00000060: 04d2 003d c024 c03c 0f81 48bd 5ac1 94bd
00000070: edff 8c3d 31f2 8c3d 7466 e1bc 8477 df3c
00000080: 4050 0ebc 06d1 653d 9630 87bd 48ba 4cbc
00000090: a2be 7a3d d097 1ebc 97c7 983d 407b 73bc
000000a0: e0d0 a5bd 5652 8bbd e8ba b7bc 5cfe d6bc
000000b0: 9036 62bd c8de dfbc 4dda 923d 7804 1cbc
000000c0: 003e 10bb 682a 25bc e80a 343c 4361 8fbd
000000d0: d265 073d 64ef fabc 841c dd3c 5f90 8b3d
000000e0: dfa1 89bd 0081 c23a 10ef 1e3c a0cd dd3c
000000f0: be5f 643d 1a54 773d 6114 983d 96b9 783d
00000100: 605b 21bc c4ff 833c b0c3 b53c 107b 9fbc
00000110: 42a4 20bd 624a 613d fc5c 8cbd 8209 1f3d
00000120: e0b4 2cbb 2e9a 633d 34aa a7bd 39df aabd
00000130: 1044 b9bb b5ad 3dbd 148e d73c 548c 83bc
00000140: 97d3 90bd 6285 8abd de25 2cbd b9e7 a6bd
00000150: 7460 7cbd c64b 15bd 801c 8ebd 0851 acbc
00000160: 748e 80bc b03f 9fbb 4d9c 86bd df74 88bd
00000170: c608 1e3d d2c5 4f3d feff afbd 420f 5dbd
00000180: 8a63 1d3d 6704 af3d 1079 2cbc 1733 00bd
00000190: 002d 333c fc86 b3bd 96f9 7fbd 6da8 4ebd
000001a0: 38b3 85bc 8042 5abb e8c4 5dbc 5bcc 84bd
000001b0: 8420 ab3c d0fc 29bc af5d 9fbd 059a 98bd
000001c0: d3f1 45bd b015 b0bc 00b7 e039 451d 933d
000001d0: bacb 74bd 52b9 103d d217 303d 547b 36bd
000001e0: d044 a63b e37a 843d 9790 8b3d 704e c4bb
000001f0: 8000 ff3c e168 16bd 8032 ff3b a5ef b43d
00000200: e8bf cf3c b4b9 8c3c a892 72bd 06f6 333d
00000210: 2037 c73c dc9e 0e3d f405 f13c 59d8 ad3d
00000220: d785 a43d 90ca 44bc 8c61 dd3c 918a 27bd
00000230: 6641 213d 5fda 9f3d d849 27bc d825 9a3c
00000240: 40bf df3b dc93 a3bd a475 abbd 2d0a 813d
00000250: 458c 9e3d 61b9 40bd 0a62 573d 01e7 7abd
00000260: f21a 88bd d065 e63c 28ea 3cbc aab4 4a3d
00000270: 0cd1 ddbc f237 75bd c84f 8abc 4ccc 16bd
00000280: 11e2 b13d 205a e3bb 3a5e e3bc ea30 613d
00000290: ccaf df3c 336d 40bd c511 6bbd 6866 483c
000002a0: 5099 893b 800a 73ba e0ae 20bc 7cb7 84bd
000002b0: d0d6 12bc 6fbe ac3d 2119 b33d 1512 05bd
000002c0: aeb0 773d 0019 15bc 08c6 51bd c014 923a
000002d0: 1f50 a7bd 5474 7bbd 1757 64bd 261b 6a3d
000002e0: c2db 493d 30c2 80bc 085f 76bd 974c a5bd
000002f0: 4b70 0ebd 6af2 3d3d 874f 843d 12fe 7a3d
00000300: d43c 873c b78d 34bd 8024 d3bc 2622 16bd
00000310: 2162 a93d 40f6 67bc a07a 9e3b e945 53bd
00000320: 0cb6 9a3c 30c8 0bbd 00f1 e9bb a020 4b3b
00000330: 2822 a2bd cd28 983d 88dd 0f3d 2024 d23c
00000340: 7f13 79bd dc7d 73bd 5b80 9fbd 42ea 40bd
00000350: 00d6 9c3a 3aa8 00bd 603a a0bb e4cc 4fbd
00000360: b848 103d f0e4 80bd 17f1 a7bd e45c f43c
00000370: 6d3b a5bd 19c4 97bd fcb8 923c c2b4 e2bc
00000380: 3088 6bbc 6984 86bd e939 ab3d a44d cd3c
00000390: 9f77 953d d9b1 33bd 2304 863d b0c7 6abc
000003a0: 9468 99bc d2ea 313d 5813 443c a369 8d3d
000003b0: 98f4 dc3c 0049 13bc 90f6 4b3c a409 a83c
000003c0: 9c01 89bd a07c 15bc 6453 07bd 7bb4 a9bd
000003d0: f4ae 20bd fcb8 ed3c 2a81 253d d813 0b3c
000003e0: 68a2 73bc b82f 033c e024 f53b 8087 ca3c
000003f0: 30f6 cd3b 0aab 723d 9211 1c3d dc2b a9bd

model.2.bias f4 [10]
-0.03262323 -0.038327247 0.024532914 -0.01422333 -0.032288015 0.002347909 -0.05785683 -0.0017816201
0.04859326 0.023486532
00000000: f09f 05bd 08fd 1cbd 40f9 c83c f808 69bc
00000010: 7040 04bd 60df 193b 49fb 6cbd 4085 e9ba
00000020: ba09 473d d466 c03c
